TORCH/mnist.pth (torch, 103680 bytes, 4 tensors)

linear1.weight f4 [32, 784]
-0.029645432 0.014224712 0.003043048 0.008333709 -0.03246661 -0.020915415 0.013745561 -0.015989807
-0.026972797 -0.0032525137 -0.019704428 -0.01078392 -0.008868925 0.0031006448 -0.00028469786 0.034653228
0.010174591 -0.008547068 0.011811819 0.0013028346 -0.004557643 -0.02128788 0.0004306659 0.029990721
-0.0256281 -0.0013191067 0.028157819 -0.021868 -0.016997863 -0.0013182536 0.020469569 0.026470408
-0.006707443 0.029277407 0.03592955 0.035963792 0.015093318 -0.0029678117 0.028042348 -0.0031593845
-0.009643866 0.035215836 0.02226964 0.00756596 -0.004596825 0.025762925 -0.030651886 0.016432222
-0.016609114 -0.021307142 -0.02239574 -0.031854413 0.0009979606 -0.014459198 -0.026418168 0.0067826062
0.003253013 -0.017282138 0.022400139 0.01798345 0.021766366 0.015493782 0.0043907617 -0.029182091
0.007628159 -0.0013109825 0.005602339 -0.0069875433 -0.031202428 0.019003179 -0.030444365 -0.0011006325
-0.031744096 0.0045496123 -0.012090499 -0.022115598 0.0073927785 0.0076793367 -0.020722963 -0.033375304
-0.035326097 -0.026914863 -0.034476425 -0.00048253685 -0.029027047 -0.033857584 0.03189635 -0.013210427
0.03298629 0.0076072505 -0.013323966 -0.02044399 0.018681146 -0.060776684 -0.01672892 -0.033646733
-0.028209304 0.07342957 0.06581646 0.04805803 0.10978209 0.05199188 0.037200563 -0.04527053
0.0011362792 0.0026873522 0.016803507 0.0027618543 -0.03819089 0.02661644 -0.030306486 0.02682266
-0.016060097 0.0022891834 0.03155176 0.03288981 0.025250725 -0.02640224 -0.042834487 0.00091507
-0.049163517 -0.020220144 -0.10977901 -0.014036155 0.0075329216 0.01399487 0.03703378 0.044123404
0.032841373 0.03203407 0.025286477 0.02668559 0.017894981 -0.046940032 -0.02719091 -0.001010023
-0.038537253 -0.007977853 0.0033262414 0.015360102 0.01757355 0.034006912 0.034460735 0.0095993895
0.009212401 -0.02533247 -0.009349031 -0.02879806 -0.019570727 -0.047409266 -0.016674915 0.019135404
-0.004794654 0.08109317 0.00790035 -0.04679164 -0.05516528 -0.070907876 -0.04015787 -0.0052164104
-0.03873138 -0.0491434 -0.037258253 -0.030136902 -0.0777925 -0.04357474 -0.0009838215 -0.0042176777
-0.0070314966 0.016237255 -0.019769395 0.00012236746 -0.0022276286 -0.0034803057 0.014164414 0.02938863
-0.06744965 -0.13146475 -0.06472522 0.011718292 -0.005591229 0.06632293 0.123478025 -0.037836194
-0.049761225 0.023527127 -0.0034869127 -0.042165864 0.020182222 0.07818744 -0.0050027883 -0.051164113
-0.03421732 -0.03508646 -0.02612676 -0.0070191124 -0.01630082 -0.008203947 0.029946435 0.036397148
0.012976113 -0.009422102 0.029668229 0.023169678 -0.038843036 -0.09633262 0.009107335 0.013517245
-0.031339437 0.043651693 0.06365123 0.045824166 0.11071846 0.042900305 0.06016141 0.112543434
0.025402721 -0.042430725 0.021256234 -0.011727921 -0.034632962 -0.03822974 -0.04935296 0.0029555752
0.009232059 -0.0011100858 0.029611904 0.050670613 0.019167576 -0.006354085 0.03048706 -0.080121934
-0.033871848 0.0009926796 -0.0030487536 0.019483438 0.09701202 0.08931504 0.11621214 0.13742903
0.092571616 -0.008267992 -0.021497315 0.0011001597 0.05287988 -0.013104489 -0.062846735 0.03666733
0.025232628 -0.041903667 -0.009912835 -0.030441532 -0.034433857 0.02224359 0.0035881763 0.005425997
00000000: fada f2bc c40e 693c e06d 473b 1c8a 083c
00000010: b5fb 04bd ce56 abbc 1035 613c 0efd 82bc
00000020: 0ef6 dcbc 2028 55bb 2e6b a1bc 0aaf 30bc
00000030: f84e 11bc 3034 4b3b 8043 95b9 8bf0 0d3d
00000040: 54b3 263c 0009 0cbc 5c86 413c e0c3 aa3a
00000050: 4858 95bb ec63 aebc 00cb e139 1aaf f53c
00000060: 05f2 d1bc e0e5 acba 3aab e63c 8524 b3bc
00000070: 1a3f 8bbc 40c9 acba ccaf a73c 78d8 d83c
00000080: 1cca dbbb 2cd7 ef3c dd2a 133d c54e 133d
00000090: f749 773c 9e7f 42bb 11b9 e53c ad0d 4fbb
000000a0: 4e01 1ebc 7b3e 103d d26e b63c dfeb f73b
000000b0: f7a0 96bb c50c d33c aa19 fbbc de9c 863c
000000c0: d60f 88bc 518c aebc 4577 b7bc c679 02bd
000000d0: 00ce 823a 46e6 6cbc ea6a d8bc a040 de3b
000000e0: 8030 553b 4593 8dbc 7f80 b73c 0752 933c
000000f0: 614f b23c a2d9 7d3c 61e0 8f3b 480f efbc
00000100: a3f5 f93b 46d5 abba d393 b73b c3f7 e4bb
00000110: 3c9c ffbc 8eac 9b3c 7666 f9bc 1943 90ba
00000120: 1906 02bd ea14 953b 3a17 46bc c52b b5bc
00000130: 1f3f f23b f2a2 fb3b 34c3 a9bc 8bb4 08bd
00000140: 19b2 10bd 8f7c dcbc 2737 0dbd 00fd fcb9
00000150: 21ca edbc 40ae 0abd bfa5 023d 8c70 58bc
00000160: a21c 073d 3e46 f93b c44c 5abc 287a a7bc
00000170: 3409 993c f9f0 78bd 170b 89bc 28d1 09bd
00000180: 3317 e7bc 3e62 963d c8ca 863d 7fd8 443d
00000190: 6fd5 e03d 70f5 543d 9e5f 183d 976d 39bd
000001a0: 34ef 943a 4a1e 303b 82a7 893c 3a00 353b
000001b0: 0d6e 1cbd b80a da3c 4f45 f8bc 32bb db3c
000001c0: 7790 83bc 2006 163b 6b3c 013d 77b7 063d
000001d0: 9cda ce3c 8349 d8bc 3773 2fbd 4fe1 6f3a
000001e0: af5f 49bd b7a4 a5bc d1d3 e0bd e7f7 65bc
000001f0: bad6 f63b bd4a 653c bcb0 173d beba 343d
00000200: ad84 063d 2836 033d 9625 cf3c bd9b da3c
00000210: 7f98 923c 3144 40bd 79bf debc c062 84ba
00000220: 3dd9 1dbd 8ab5 02bc 12fd 593b f0a8 7b3c
00000230: 68f6 8f3c d54a 0b3d b326 0d3d c246 1d3c
00000240: 9cef 163c 0a86 cfbc ae2c 19bc e9e9 ebbc
00000250: ca52 a0bc 3830 42bd d599 88bc dac1 9c3c
00000260: 791c 9dbb 2d14 a63d 7870 013c 97a8 3fbd
00000270: fdf4 61bd 2638 91bd 947c 24bd 6cee aabb
00000280: cca4 1ebd 974a 49bd 1c9c 18bd aae1 f6bc
00000290: ad51 9fbd 6d7b 32bd 92f3 80ba 7234 8abb
000002a0: 7868 e6bb fe03 853c 6df3 a1bc c44f 0039
000002b0: 68fd 11bb d715 64bb dc11 683c 6dc0 f03c
000002c0: 0b23 8abd b29e 06be a88e 84bd 14fe 3f3c
000002d0: a136 b7bb 51d4 873d 0ce2 fc3d 20fa 1abd
000002e0: 6dd2 4bbd f6bb c03c b084 64bb 1db6 2cbd
000002f0: 3055 a53c bd20 a03d 6eee a3bb 7691 51bd
00000300: 7627 0cbd d2b6 0fbd c907 d6bc 9500 e6bb
00000310: 4c89 85bc d969 06bc 3a52 f53c 2d15 153d
00000320: c399 543c 295f 1abc c90a f33c 56ce bd3c
00000330: e019 1fbd 094a c5bd ee36 153c 6f77 5d3c
00000340: c85d 00bd 1ecc 323d 935b 823d 1fb2 3b3d
00000350: 5cc0 e23d 3bb8 2f3d d06b 763d 2c7d e63d
00000360: 5e19 d03c d7cb 2dbd 8e21 ae3c 7726 40bc
00000370: 4bdb 0dbd ca96 1cbd 5426 4abd 53b2 413b
00000380: 1042 173c 4c80 91ba aa94 f23c fd8b 4f3d
00000390: 5205 9d3c ee35 d0bb 00c0 f93c f816 a4bd
000003a0: 35bd 0abd cd1c 823a 99cd 47bb bb9b 9f3c
000003b0: 3dae c63d ceea b63d a100 ee3d 32ba 0c3e
000003c0: 3096 bd3d 7976 07bc 231b b0bc 3c33 903a
000003d0: 9398 583d 36b4 56bc cab5 80bd 7b30 163d
000003e0: a8b4 ce3c 2ea3 2bbd 7269 22bc 8560 f9bc
000003f0: 840a 0dbd 3038 b63c 9c27 6b3b 90cc b13b

linear1.bias f4 [32]
0.18002413 0.033613544 0.05764511 0.042207398 -0.29114518 0.024145074 0.053445555 0.078466505
0.09798285 0.034443475 0.19008516 0.14804675 0.33997583 0.09095278 -0.17980503 0.24757896
0.0146444505 0.014751946 0.050167657 0.2184509 0.24953161 0.27122897 0.13477847 0.1512701
0.025803784 0.21275897 -0.024345081 0.4095248 0.049481295 0.23432608 0.059466742 0.1041828
00000000: 3f58 383e 5bae 093d 471d 6c3d aae1 2c3d
00000010: fb10 95be e4cb c53c bae9 5a3d 0cb3 a03d
00000020: 3cab c83d 9a14 0d3d afa5 423e 9199 173e
00000030: 5011 ae3e 7345 ba3d cf1e 38be 5785 7d3e
00000040: 47ef 6f3c 25b2 713c 9a7c 4d3d 98b1 5f3e
00000050: 3785 7f3e 86de 8a3e 5e03 0a3e 8de6 1a3e
00000060: 7562 d33c 7ddd 593e 566f c7bc 3cad d13e
00000070: e6ac 4a3d 2df3 6f3e 6693 733d cb5d d53d

linear2.weight f4 [10, 32]
0.83457565 0.66945404 -0.17858592 -0.11180143 0.27199844 -0.036013436 -0.36382556 0.044705898
0.149205 0.07338432 -0.4893891 0.65656763 -0.62437963 -0.94510233 -0.40803897 0.2717228
0.47935927 0.09842385 -0.27758723 -0.18112914 -1.3200815 -0.8965586 -0.20187788 -0.08119719
0.51098704 0.5009368 0.20259438 0.31568402 -0.31486654 -0.5408666 -0.5344068 0.13358638
-0.25905576 1.1254154 0.34394023 -0.25953844 0.068395376 0.19826621 0.18694402 0.5501979
0.3009894 -0.38950238 -0.77609855 -0.11491293 -0.07799228 0.09327317 0.6157167 0.9630343
-0.96451783 0.0025300938 0.112575375 1.0612066 0.15527004 0.5749862 -0.36140624 -0.727064
-0.61668664 -0.06676157 0.60233796 -0.7912558 0.47660932 0.30943903 -0.46168888 -0.045137815
-0.2166171 0.6935039 -0.658713 -0.9096818 0.98161453 -0.4230427 0.04216075 0.5344014
0.34608105 0.9437496 0.072438434 0.22287183 1.1982669 0.630565 0.408416 -0.30682364
-0.08959705 0.013553417 0.007793727 0.38491538 -0.6069339 0.28993592 0.3371138 0.3218145
0.021930877 0.8395325 0.82460433 -0.48245037 -0.52596325 -1.1489332 -0.5675079 -1.2388402
-0.48351654 -0.10564452 0.73647344 0.29549882 0.48877746 -1.1166308 0.5876242 -0.9064376
-0.43656313 1.0715983 0.27068096 -0.98450476 -0.06568486 0.07348131 0.689782 -0.0166804
-0.12923075 -0.030367866 0.65218097 -0.28252372 0.42117143 0.13576047 0.9621208 -0.6802627
0.8574536 -0.0692397 0.11504731 -0.45301 -0.6051983 0.37070292 0.91225934 -0.8997251
-0.020287933 -0.50346583 -0.5582158 1.1968826 -1.671971 0.88202745 -0.16217683 0.42589614
-0.51727074 -0.7863643 0.46853614 1.2150208 0.33422104 -0.13712825 0.5881946 -0.16501328
0.06523976 0.14843714 -0.15836062 0.12580638 0.35106045 0.5196133 -0.6252408 -0.58393997
0.050467454 -0.6146992 0.15831544 -1.2248753 0.23866667 -0.15636927 -0.3160562 1.1937883
-0.27928826 -1.2198699 1.5649927 0.27954358 0.07108063 0.15005952 0.019014059 0.029004497
0.59969336 0.040612277 0.034113206 -0.7494027 0.5874877 -0.3716779 -1.2661273 0.17234322
0.5101709 0.031103982 0.47144473 -1.4335291 0.83004427 -0.0022212693 0.60641354 -0.83983976
-0.04514718 0.23365876 -0.23937815 1.4762244 0.13746677 1.0639396 -0.4623923 0.5084308
8.382371e-05 -0.16361952 -0.1462243 -0.15529385 -0.14995362 0.3488402 0.124340005 0.19972233
-0.03193942 -1.231854 1.2045856 -0.34223515 -0.15048532 -0.51249754 -0.6034899 1.01222
0.37854102 -0.083650485 -0.12165041 -0.5407738 -0.7762805 -0.27762246 -0.67386544 1.1605588
-0.5106653 1.0802051 -0.19639647 -0.41754925 -0.20336835 0.1752152 -0.73501223 0.647849
1.0364169 0.20194492 -0.37233198 0.35927513 0.46237296 -0.1394718 1.2749506 0.5036503
-0.13591246 0.38569525 -0.16954501 0.6374217 -0.6861155 -0.08218616 0.5780334 -0.27470583
-0.9425329 0.15862432 -0.36315385 -0.13511568 -1.0120468 -0.57239634 0.798164 0.3943009
-0.35964283 -0.44725934 1.0263975 0.45676497 0.5520824 0.2423201 0.8645679 0.21446437
00000000: c0a6 553f 5761 2b3f 3adf 36be 26f8 e4bd
00000010: 6143 8b3e d382 13bd 5847 babe 881d 373d
00000020: 32c9 183e 854a 963d 3591 fabe d114 283f
00000030: 58d7 1fbf 3af2 71bf 7cea d0be 401f 8b3e
00000040: 946e f53e 7292 c93d ea1f 8ebe eb79 39be
00000050: 6ef8 a8bf dd84 65bf 13b9 4ebe b64a a6bd
00000060: 0cd0 023f 653d 003f e774 4f3e 56a1 a13e
00000070: 3036 a1be 3c76 0abf e2ce 08bf deca 083e
00000080: f5a2 84be 9d0d 903f ef18 b03e 39e2 84be
00000090: e012 8c3d 4c06 4b3e 416e 3f3e c5d9 0c3f
000000a0: 481b 9a3e db6c c7be 65ae 46bf 7857 ebbd
000000b0: 6bba 9fbd 0106 bf3d 9c9f 1d3f 6a89 763f
000000c0: a4ea 76bf eecf 253b eb8d e63d 9ed5 873f
000000d0: 1cff 1e3e 4c32 133f 3d0a b9be de20 3abf
000000e0: 2ddf 1dbf 4aba 88bd d232 1a3f bd8f 4abf
000000f0: 2306 f43e cb6e 9e3e 7c62 ecbe 6ee2 38bd
00000100: e0d0 5dbe 7989 313f 6aa1 28bf e8e0 68bf
00000110: 174b 7b3f 0e99 d8be c0b0 2c3d 88ce 083f
00000120: 8931 b13e 9399 713f 9a5a 943d 8338 643e
00000130: cf60 993f b56c 213f e71b d13e fd17 9dbe
00000140: a87e b7bd 270f 5e3c 8562 ff3b a113 c53e
00000150: 0560 1bbf 7b72 943e 2e9a ac3e dfc4 a43e
00000160: 62a8 b33c 9aeb 563f 4519 533f bc03 f7be
00000170: 87a5 06bf 3e10 93bf 3348 11bf 5192 9ebf
00000180: 7b8f f7be 275c d8bd 8689 3c3f 9f4b 973e
00000190: 0a41 fa3e c2ed 8ebf 8a6e 163f 4b0c 68bf
000001a0: 3485 dfbe 222a 893f b296 8a3e 8108 7cbf
000001b0: c985 86bd 5e7d 963d 8e95 303f 56a5 88bc
000001c0: 1155 04be 08c6 f8bc 55f5 263f f3a6 90be
000001d0: c8a3 d73e cb04 0b3e 8c4d 763f b225 2ebf
000001e0: 1482 5b3f 8bcd 8dbd ed9d eb3d edf0 e7be
000001f0: 47ee 1abf c6cc bd3e d489 693f 6254 66bf
00000200: e132 a6bc 23e3 00bf 3be7 0ebf 7333 993f
00000210: 2503 d6bf 8dcc 613f af11 26be 0f0f da3e
00000220: db6b 04bf 2c4f 49bf f8e3 ef3e cd85 9b3f
00000230: 051f ab3e 596b 0cbe ec93 163f 3ef9 28be
00000240: 6c9c 853d e8ff 173e 4929 22be 63d3 003e
00000250: 32be b33e 6105 053f c80f 20bf 177d 15bf
00000260: f6b6 4e3d ed5c 1dbf 711d 223e b7c8 9cbf
00000270: 0965 743e 441f 20be 1ed2 a1be 0ece 983f
00000280: dffe 8ebe b224 9cbf ae51 c83f 5620 8f3e
00000290: b992 913d 34a9 193e 5fc3 9b3c d79a ed3c
000002a0: 8185 193f 0f59 263d 4aba 0b3d dbd8 3fbf
000002b0: 9865 163f 914c bebe 7610 a2bf be7a 303e
000002c0: 8f9a 023f c7cd fe3c 3461 f13e e27d b7bf
000002d0: c87d 543f b792 11bb eb3d 1b3f bdff 56bf
000002e0: 40ec 38bd 3e44 6f3e 8c1f 75be ecf4 bc3f
000002f0: 17c4 0c3e 2c2f 883f afbe ecbe 8528 023f
00000300: 83ca af38 e08b 27be d3bb 15be 5a05 1fbe
00000310: 718d 19be 2f9b b23e f9a5 fe3d 0384 4c3e
00000320: e9d2 02bd 64ad 9dbf dc2f 9a3f 7239 afbe
00000330: d318 1abe 0a33 03bf 507e 1abf 6d90 813f
00000340: 21d0 c13e f250 abbd da23 f9bd 2770 0abf
00000350: 52ba 46bf 8824 8ebe 7282 2cbf 318d 943f
00000360: f6ba 02bf 2944 8a3f 281c 49be 04c9 d5be
00000370: cb3f 50be 9d6b 333e c329 3cbf 6fd9 253f
00000380: 4fa9 843f a6ca 4e3e 4ca2 bebe e9f2 b73e
00000390: 26bc ec3e b2d1 0ebe 9531 a33f 3aef 003f
000003a0: a32c 0bbe d979 c53e 359d 2dbe 122e 233f
000003b0: 44a5 2fbf 3851 a8bd fff9 133f 3ea6 8cbe
000003c0: d649 71bf 6a6e 223e 4def b9be c45b 0abe
000003d0: c08a 81bf 9188 12bf 7a54 4c3f cfe1 c93e
000003e0: 1b23 b8be 2dff e4be fe60 833f 19dd e93e
000003f0: 4655 0d3f c322 783e 5254 5d3f 8c9c 5b3e

linear2.bias f4 [10]
-0.34680438 0.18645851 -0.059994925 -0.23931357 0.07542816 0.57087386 -0.27996746 0.086185694
-0.03447519 0.03601314
00000000: 5890 b1be fbee 3e3e 3dbd 75bd 9e0e 75be
00000010: 147a 9a3d ca24 123f e557 8fbe 2082 b03d
00000020: db35 0dbd 8482 133d
