TORCH/mnist.pth (torch, 103680 bytes, 4 tensors)

linear1.weight f4 [32, 784]
00000000: d6b2 d73c d2d8 c83c 591a ab3c 9337 053d
00000010: 6f30 eebc 9afa b03c a979 f23c c119 16bc
00000020: 2465 a5bc d7bc ea3b b2f2 4c3c 9e33 543c
00000030: bf09 8a3b a7b9 b9bb c004 51bb 783e bf3c
00000040: 0aee 00bd 4a42 86bc a41a 85bc 6200 d3bc
00000050: 04e7 ae3c a689 a4bc f36a 3d3b 9b59 803c
00000060: 98df f63c 13db 9c3b 670e 0d3c 304f 35bb
00000070: e6d4 0a3d be32 123c a675 66bc a9fc c03c
00000080: e15c 063d 89e2 58bc e88a 103a 1d38 183c
00000090: 362d e63c 1e33 a53b 0a25 c33b e7fa b23a
000000a0: 5f41 ad39 8396 f7bb e088 27bc 5b62 d7bc
000000b0: 093d 683c ab78 3e3c 7eb6 5abc 8a18 b33c
000000c0: 4691 9d3c fe19 893c 02f7 bb3c 4987 f4bc
000000d0: 8b6f 4c3a d794 dbbc 3cdb ea3c b8f7 77bc
000000e0: 54e6 083d 1790 45ba 7e11 bc3c adcc 4dbc
000000f0: f7a9 713c 263e a2bc 0fe1 e7bc 474b 8c3c
00000100: 4075 aa3c 4597 16bd 43c9 1f3a fe00 e63c
00000110: fcb4 173b a683 dcbb 9d66 de3b dcc1 8bbb
00000120: ecd5 3e3c 9e5f c03c fafe f3bc 0e30 213c
00000130: 8a14 12bd 6638 c43c 4c59 ab3c 6cdf a03c
00000140: e5bf 803c 700b 0b3d 3688 08bc ad6e 14bc
00000150: 8f8e adbc 88db 84bb b2b8 0cbd 5b27 b93c
00000160: e06d a83b a8bc 393c ca47 f1bc ec00 ef3c
00000170: 67b6 803c fc3f eb3c 4dfc 09bd 7470 db3c
00000180: 1d39 17bc 3133 f3bc c7a7 a23c fa9d d7bc
00000190: 81c0 893c 9320 5d3c 5cf6 4f3b 07ed 1abd
000001a0: ba89 453c 6a83 11bd 6502 d53b 1884 6238
000001b0: 4da3 cb3c c9e9 ea3c e9d8 8a3c 7158 44bc
000001c0: 58de 61bc 59ce a33c 1a62 04bd 2ca6 c33c
000001d0: fbbc e9bb 7fa5 99bc 0864 c33b e263 99bc
000001e0: 3830 e0bc c8f6 063c 73c9 7e3b c9ec 28bd
000001f0: 32f6 1abc a877 19bd ca63 13bc b3f9 2abb
00000200: 7d01 de3c 26b1 9a3c ccbd 2a3c 28f4 5b3a
00000210: 3593 063d 0dd2 e33c 1fff 933b 58be 16bc
00000220: bc93 00bd a267 0dbd 515a f33c 3a44 a53c
00000230: 8038 e6bc 5fee 92ba de3a a63c a6db 3a3c
00000240: d576 43bc 3551 953c 62d6 75bc b8a1 1bbb
00000250: 9867 983b 728a 993c a354 bf3c 8c98 2bbc
00000260: 13d0 5abc 9a2b a23c da40 cebc d40a 203c
00000270: 8275 0dbd 81e5 dc3c 7ae3 d0bc 879e f8bc
00000280: 3da7 053d 4a13 c23b 559d f7bc 2449 cfbc
00000290: 9fef 91bb f9d7 d8bc 0aef b13c 4f97 cbba
000002a0: 7a27 bdbc 89ce 113c f644 a9bc 8cb0 f43c
000002b0: 6fa1 dc3b abb6 09bc d14b a73c bfbe 6bbb
000002c0: 1362 b4bc 6959 bcbc b5d9 723c 689c 1dbd
000002d0: 2b1e 2d3c a9e9 c1bc 3512 ad3c f870 e9bb
000002e0: ffdc 573c 89ef 973c d90b 0abd 050e 00bd
000002f0: 6241 7cbc d06d d1bb 229d bf3b 70f7 60bc
00000300: c67c 0c3d 7282 843b b7ff c13c 1093 18bc
00000310: 013b 653c 8436 16bb fac8 4fbc 9d08 02bd
00000320: d157 e23c 3255 bd3c 65c6 1abb df3c c2bc
00000330: 75a9 86ba b189 de3c 2b61 0abd c0b0 ad3c
00000340: bfeb 93bb 99e0 9a3c 0872 d53b 728c 9dbc
00000350: b25c 943c b408 473c 5671 dd3c b25b f9bc
00000360: 2219 e6bc d1b7 f43c 7375 38bb 9252 04bc
00000370: a5d1 1b3c bb49 913c a7c5 a33c 08b1 d7bc
00000380: d1b2 ad3c a50a c4bc c0c4 743c 76fe ad3c
00000390: da91 ea3c 7240 f1bc 18e6 fa3c c3ef a23c
000003a0: 989d a83c d4f2 a83c 69f9 e33c c1bf cfbc
000003b0: 7aca 0fbd 1402 3dbc 72ea 393c 9352 cabc
000003c0: 4d59 05bc a9cf 54bb 0d10 07bd 2f6d cebb
000003d0: 5474 023d 94a9 28bb 70c5 0b3c 32ef 87bb
000003e0: 10df 8f3a 1827 b3bc bdaa f5ba 0fca 9c3c
000003f0: 9332 92bb a276 4f3c 93ad ae3c 2081 343c
0.026330393 0.02451745 0.020886587 0.032523703 -0.02907583 0.021603871 0.029599028 -0.009161414
-0.02018983 0.0071636247 0.012509035 0.01295176 0.0042125876 -0.0056678834 -0.00318937 0.023345217
-0.03147701 -0.016389031 -0.016248055 -0.025757018 0.021350391 -0.020085167 0.0028902858 0.015667727
0.030135915 0.004786858 0.008609391 -0.0027665608 0.033894442 0.008923231 -0.0140661355 0.023557978
0.03280342 -0.013237604 0.00055138627 0.009290722 0.02809773 0.005041494 0.005955343 0.0013655097
0.00033045837 -0.007555784 -0.010225505 -0.026292017 0.014174708 0.011625449 -0.013349174 0.021862287
0.01923431 0.016736027 0.022944931 -0.029849665 0.00077986036 -0.02680437 0.028668992 -0.015134744
0.033422783 -0.00075364247 0.02295756 -0.012561006 0.014749995 -0.019805025 -0.028305558 0.017125739
0.020807862 -0.036765356 0.0006095359 0.028076645 0.0023148647 -0.006729561 0.006787135 -0.004265053
0.011647683 0.023483094 -0.029784668 0.009838117 -0.03566412 0.023952674 0.020916604 0.019637786
0.015716502 0.033946455 -0.0083332565 -0.00905959 -0.021186141 -0.0040544905 -0.034355827 0.022601774
0.0051400512 0.011336483 -0.029453177 0.029175244 0.015711976 0.028717034 -0.03368788 0.02678702
-0.009229925 -0.029687496 0.019855393 -0.026320446 0.016815426 0.013496536 0.0031732535 -0.037823703
0.012056762 -0.035525717 0.0065005296 5.400562e-05 0.024858141 0.02867593 0.016949134 -0.011983977
-0.013785921 0.019995855 -0.03232012 0.023882948 -0.007133124 -0.018755672 0.0059628524 -0.018724386
-0.027366742 0.008237548 0.0038877397 -0.04124144 -0.009458112 -0.03746763 -0.00899596 -0.0026088774
0.027100319 0.0188833 0.010421228 0.0008390569 0.03285523 0.027810121 0.004516497 -0.009200655
-0.03139089 -0.03452266 0.029706152 0.020174135 -0.028103113 -0.0011209956 0.020291742 0.011404907
-0.011930187 0.0182272 -0.015004726 -0.0023747515 0.004651021 0.018742774 0.023355788 -0.010473382
-0.013355273 0.019796181 -0.025177408 0.009768207 -0.034535892 0.026964905 -0.025499094 -0.03034903
0.032630194 0.0059227096 -0.030226389 -0.02530343 -0.004453614 -0.026470171 0.021720428 -0.0015532764
-0.023090113 0.0088993395 -0.020662766 0.02986934 0.0067331116 -0.008405368 0.020421894 -0.0035971848
-0.022019422 -0.022991853 0.014822413 -0.03847924 0.010566275 -0.023670988 0.021126846 -0.0071240626
0.013175248 0.018546836 -0.033702705 -0.03126337 -0.015396448 -0.0063912645 0.005847589 -0.013730869
0.03429868 0.0040438706 0.023681505 -0.009312406 0.013991118 -0.0022920677 -0.012682194 -0.031746496
0.027629765 0.023111913 -0.0023616788 -0.023710666 -0.0010273891 0.027165266 -0.033784073 0.021202445
-0.004514187 0.018905925 0.0065138377 -0.019232009 0.018110607 0.012148071 0.027031582 -0.030439232
-0.028088156 0.029872807 -0.0028146177 -0.008076327 0.009510432 0.017735353 0.019991709 -0.026329532
0.02120343 -0.023930857 0.014939487 0.0212395 0.028634 -0.029449675 0.030627295 0.019889718
0.020582959 0.020623602 0.027828889 -0.02535999 -0.035105206 -0.01153614 0.0113474 -0.024697578
-0.008138967 -0.0032472408 -0.03297429 -0.006299637 0.03184922 -0.0025735842 0.0085309595 -0.0041483874
0.0010976512 -0.021869227 -0.00187429 0.019139318 -0.0044615953 0.012662562 0.021323001 0.011017114

linear1.bias f4 [32]
00000000: a27e 7b3c 7a95 d9bd 4ce4 83bc 6237 54bc
00000010: fc8c 903f 7874 b9bd 8f4f a3bd 0094 8dbc
00000020: 560e 8cbd 3e6a 27bd 5525 c03f 889a 2a37
00000030: 6ede 7cbc 7d59 7d3b a67d b53f 585d efbd
00000040: 0d2f 8f3f 5a5c 22bc f99f 5fbd ab5e 50bd
00000050: 04ca b4bd 0dd9 a2be a90e 0940 fd84 383c
00000060: 8bfb 803f fc7b 1fbd 3b24 80bc f317 223f
00000070: 0071 1f3f 8e6d dd3f 92cb 06bd 4b53 25be
0.015350016 -0.106242135 -0.016100071 -0.012952657 1.1293025 -0.09055418 -0.07974159 -0.017282486
-0.06838672 -0.040872805 1.5011393 1.0168769e-05 -0.015433891 0.0038658076 1.417897 -0.11687726
1.1186234 -0.009909714 -0.05459592 -0.050871532 -0.08827594 -0.31806222 2.1415198 0.011262176
1.0076765 -0.0389366 -0.015642276 0.63317794 0.622818 1.7299058 -0.032908984 -0.16145055

linear2.weight f4 [10, 32]
00000000: eb4f 9dbd 5744 2d3e 77f4 60be 7524 afbe
00000010: ebdb 25be 643f 763c e55b 19be bd5c 4d3e
00000020: 4cdc 72bd 5a7b e7be 80d5 37bf e75d e8bd
00000030: 0058 533d 9e92 15bf af7e 913e a2b3 adbf
00000040: 9da7 4d3f 0944 293e 9152 a3be e775 f2bd
00000050: db30 f9be 65a7 a7bd a8cf b4be 58a9 79bd
00000060: a522 643e e09c 3b3d d8e6 603d 7347 0ebe
00000070: 3b4c c7bd 4992 663f 1919 86bd 64de 4d3d
00000080: cfb9 f4bd 33f3 3fbe d6d6 c13c c183 c1be
00000090: bc43 87be c76d 0ebe d766 e63c 29b3 633d
000000a0: f556 6cbe 0256 8c3e a0cf 063f 56ca 11be
000000b0: 2b7d cb3d 46fc c3be 72a3 873d b5ce b43e
000000c0: 287a 5e3f 3324 1dbe cbd3 e03e c500 013e
000000d0: 6619 22be 471e 31bd 5fc8 273f 317f b3be
000000e0: 90e6 1ebf 28cf 023d b417 413d f120 f6bd
000000f0: 4057 253f 7cf5 92be c3c8 af3d 0d47 223e
00000100: e7e9 8dbd 53e1 263e 8f22 98bd f52c d03e
00000110: a99c c53d 7482 e13d 2cfc 19be 9dae 743c
00000120: fa77 063e 4fb4 7d3e dc5c 56bf d0ed 083a
00000130: 831c 1f3e 1cf1 e5be 793c 723f d514 1a3f
00000140: 0344 f4bd 2fa9 143e 7770 033e 8fb1 413c
00000150: adab 993e f034 6fbe 82ec 74be 984c b4bd
00000160: 1889 aebe 7582 1b3d 250b 193e 3c85 c1bd
00000170: 416f 013f ab25 b3be bfa0 ec3c 1b10 2a3f
00000180: 71c8 7f3d 8025 b2be 9f40 993d 2a44 393d
00000190: 4b1e cbbe 3114 61be b789 31be fbcd 74be
000001a0: 12c8 923d 8d2c ac3c 0b19 6e3d 9b49 adbd
000001b0: 4c16 0f3e 10f7 fa3c d594 623e bf20 94be
000001c0: e569 fabe 1d22 8fbd 2d88 033d c6be 06be
000001d0: 8043 63be e473 07bf de29 b23e f591 b53d
000001e0: 0b4b 49be 401d af3b 6e58 303e 7e3c 21be
000001f0: c03a d83e f7cd 983f c6ff d1bd a403 943e
00000200: 7b2c 38bd 33d0 4b3e 8ecb 4ebd b7bd 853e
00000210: e33b 213e 4026 a83d 7588 9a3b 6a92 59bd
00000220: e9c7 843e d3b2 383e a5e4 c2be cd1e 26be
00000230: f943 fb3d 2280 90be 5c82 15be 7f90 823f
00000240: dd25 81bf 0d63 1fbe 60e4 213e 313e 39bb
00000250: f86f 623e ac3e d4be 552c b6bf 5768 b6bd
00000260: 4343 e0be 0303 f7bd 2792 23be 5b31 78be
00000270: 2189 583f e8c6 a73e b865 043e 6dd4 18bf
00000280: 4134 c139 38ca 62be 08d0 c0bb 41c0 8cbe
00000290: 5de5 d73f ae2d 0bbe c289 3dbe c832 73bd
000002a0: d19a 5cbd d179 a0bd b12e aabd 559f 7f3d
000002b0: 3c2f c2bc 7c30 c2bd eafe a9be 344f 98be
000002c0: 0c2a 003e b2c8 23be 97dd 5abe 6a58 723b
000002d0: 9f94 41be a062 c73e 6529 cf3f 3a6e ef3d
000002e0: 196b 5b3e e958 983d 5da9 86bd 5fc1 c83f
000002f0: 4083 71bf 043b f0be 6f71 9d3d 006e 7dbe
00000300: 9bbb f13d 7ccf b33d 3592 003e e8f2 6f3e
00000310: 4971 92be b924 54bd 5de6 9c3e 6d2e 9a3e
00000320: fc68 4fbd df0b a23e 2f1c a7bf ed8c 32be
00000330: 15bf 8cbd 5cd8 cabe c203 08bc f18f 543f
00000340: 6376 753e 3112 fc3d 0c82 033e 0a81 8dbd
00000350: 14e0 b03e ae8b 9dbe 2a58 8bbf f685 70be
00000360: 841b 1fbf 9ce5 25be 99c5 903d 25b5 f3bc
00000370: 4e7b 99be 6f51 343f 5f3c f9bd a8dc 0e3f
00000380: 06b5 293e bcb4 56bd 5ffc 2f3e 798f 55bd
00000390: 5680 b1bd 4265 13be 6fe1 38be 9509 d53d
000003a0: d2b9 aa3c c825 39bd 14ab d23f 242e 273e
000003b0: 4700 10bd 2e37 383e cfde 06bf 01d6 91be
000003c0: bc57 a0be ce7b 9a3d 0959 20be d945 15be
000003d0: 0beb 62be 6540 df3e b4db 353f ad1b 993e
000003e0: 4b6a 873e 13b7 a13c 568e 073e e4f6 12bf
000003f0: cc7d 1dbf 532d a6bf f73d 1d3e a232 96be
-0.07681259 0.16920601 -0.21968256 -0.34207502 -0.16197173 0.015029762 -0.14976461 0.20054908
-0.059292123 -0.45211297 -0.7181015 -0.113460355 0.051597595 -0.58426845 0.28416964 -1.3570445
0.8033388 0.1652986 -0.3189893 -0.11838894 -0.48670086 -0.08186225 -0.3531468 -0.060952514
0.22278841 0.045803905 0.05490765 -0.13894443 -0.09731337 0.90066963 -0.06547756 0.050260916
-0.11949503 -0.18745117 0.023662012 -0.37795833 -0.26418865 -0.13909064 0.02812521 0.055590782
-0.23080046 0.2740937 0.5266056 -0.14237341 0.09935983 -0.38278407 0.066229716 0.35313955
0.86905146 -0.1534584 0.43911585 0.1259795 -0.15830001 -0.043241765 0.6554012 -0.35057977
-0.6207056 0.03193584 0.047141746 -0.12018002 0.6458626 -0.28702915 0.08583214 0.15847416
-0.06929379 0.16296892 -0.074284665 0.406593 0.09649021 0.1101121 -0.15037602 0.014934209
0.13131705 0.24775814 -0.8373544 0.0005223425 0.1553822 -0.44910514 0.94623524 0.6018804
-0.11927035 0.14517663 0.1283587 0.011822118 0.3001379 -0.23360038 -0.23918346 -0.088036716
-0.3408897 0.03796621 0.14945658 -0.094492406 0.50560385 -0.34989676 0.028885243 0.66430825
0.062447015 -0.34794235 0.074830286 0.045231022 -0.3967155 -0.21980359 -0.1733769 -0.239067
0.07167067 0.021017337 0.05812935 -0.08461305 0.1397335 0.030635387 0.22127087 -0.28931233
-0.48908916 -0.069889285 0.03211229 -0.13158712 -0.22193718 -0.5291121 0.34797567 0.0886573
-0.19657533 0.005344063 0.17221233 -0.15745732 0.42232323 1.1937855 -0.10253863 0.28909028
-0.044964295 0.1990364 -0.050487094 0.26121303 0.15745501 0.082104206 0.004715974 -0.053118147
0.2593377 0.18036966 -0.38065067 -0.16222687 0.12268824 -0.28222758 -0.1460051 1.0200347
-1.008968 -0.15565129 0.15809774 -0.0028265829 0.22113025 -0.41454065 -1.4232279 -0.0890662
-0.43801317 -0.12061121 -0.15973721 -0.24237578 0.8458424 0.3276894 0.12929428 -0.59699136
0.0003685076 -0.22147453 -0.0058841743 -0.27490428 1.6866871 -0.13591644 -0.18509582 -0.0593746
-0.053858582 -0.07835735 -0.08309687 0.06240781 -0.023704164 -0.09481904 -0.33202296 -0.29747927
0.1251604 -0.15994528 -0.21373592 0.0036978968 -0.1890435 0.38942432 1.6184508 0.11690946
0.21427573 0.07438833 -0.06575272 1.5684012 -0.94340897 -0.46920025 0.07687651 -0.24748993
0.11803361 0.08779809 0.12555774 0.23432505 -0.28602055 -0.051792834 0.30644503 0.30113545
-0.05063723 0.31649682 -1.3055476 -0.17436571 -0.068723835 -0.39618194 -0.008301677 0.8303214
0.23970942 0.12308157 0.12842578 -0.06909378 0.34545958 -0.3077063 -1.088628 -0.23488602
-0.6215136 -0.1620087 0.07068939 -0.029749462 -0.29976887 0.7043676 -0.12169718 0.55805445
0.16572961 -0.052418455 0.17186116 -0.05213878 -0.08667056 -0.14394096 -0.18054746 0.10402218
0.02084056 -0.045202047 1.6458459 0.16326195 -0.035156514 0.179898 -0.5268373 -0.28483585
-0.31316936 0.07543145 -0.15658964 -0.14577426 -0.22159974 0.43603817 0.71038365 0.29903927
0.26448283 0.019740617 0.1323789 -0.57407975 -0.61520076 -1.2982582 0.15355669 -0.29335505

linear2.bias f4 [10]
00000000: 0170 053f 04b0 1dc0 182b c93f b7c7 42bf
00000010: b537 2040 dcaa 81bf 6d1a 8c40 67a2 b6bf
00000020: fd49 c9be c358 13c0
0.5212403 -2.4638681 1.5716276 -0.7608599 2.5034 -1.0130267 4.378226 -1.4268311
-0.3931426 -2.3022926
