TORCH/mnist-logistic.pth (torch, 32962 bytes, 2 tensors)

linear.weight f4 [10, 784]
00000000: 7eef e3bc 0c8b a63c 9ff8 113d af47 07bd
00000010: 5009 033b 68fd 3b3c d823 653c 20a5 083c
00000020: aa22 24bc f802 093c 047c 7a3c 528a 0bbd
00000030: ded6 04bd 6bae 123c a0ad b9ba e630 3fbc
00000040: 1e9a c23c d08d 323b 5516 b3bc 2484 02bd
00000050: 20fe b53a d142 ecbc 7796 a0bc 001d fe3a
00000060: ff2e 0f3d 7844 063c 92a3 11bc 98ad 523c
00000070: c4b2 07bc 5357 ddbc c66d f43c 6aab 8a3c
00000080: 7531 d9bc 421f 5cbc 4fd7 9bbc bef8 f0ba
00000090: d682 8fbc 9960 ab3c 012e b43c 9fd0 28bc
000000a0: 3490 8abc 44e9 0dbd b4ae f2bc 5f24 8bbc
000000b0: 47f7 3cbb afb9 2b3c 064d ad3b 61f1 e33b
000000c0: 24a7 dcbc 27d3 7b3c 7c55 933c 253e c2b8
000000d0: baaf f1bc 70c7 423b 30c0 d93c 5459 603c
000000e0: 88cb a33b 7ee6 a03c 46d5 a5bc 54ff 303c
000000f0: d412 f2bc bf94 d13c 79c2 713c f46e 393a
00000100: 9fce a43c 2065 033d f84b 953c aa77 c53c
00000110: b3b3 6d3c e193 843c 3ac1 9cbc 238f 6539
00000120: d9b3 05bd 3360 09bd 7177 e6bc b100 66bc
00000130: f819 b13b 4105 823c 99e7 eebb a805 01bc
00000140: 63f0 a53b 7fb6 073d 7545 103d 6534 cfbc
00000150: 50b9 993c c8a3 c8bc 25a3 26bb 8f5b cd3c
00000160: e328 81bc af4a d6bc 0309 86bc cd44 5fbc
00000170: 8bb7 003d 918b 1abd 0978 f0bc 6806 d43c
00000180: 7930 e8bc 582e 2eb9 b8d1 2f3c b27d 30bc
00000190: e596 52bd 4713 763b b73f b6bb 1ffe 583b
000001a0: 1e02 893b 05f1 0c3c 94d9 02bd 3e5e 00bc
000001b0: 752a db3c d84d bdbc 467a e7bc 6a2d 17bc
000001c0: 9cbb 12bc a349 4bbc df28 5c3b bede 33bb
000001d0: 41b0 003d 7369 24bc 0ddf a33a 5010 0abd
000001e0: e3d6 c3bc f483 bb3c 914e efba f11d 0abc
000001f0: 8f2c e9bc f630 e5ba 2b8b 8abc 37f8 853c
00000200: 1f2e 043c 6eff 433c 9ece cd3c a1c8 25ba
00000210: 30f3 c0bc 792e c9bc ff65 203b 06d0 66bc
00000220: 066a fb3b 2c19 6a3c 3355 54bc c101 f7bc
00000230: e6e7 6abc c06e 0fba 4d35 f4ba 1052 d5bc
00000240: f8fc b93c 7c32 1ebd c37e b2bc fa77 7dbc
00000250: f574 30bd d7d1 cabc 3571 19bd 5be2 c6bb
00000260: d7fa d0bc 6429 8e3a dd3e 393d a7ea 413d
00000270: c89c 923d cafe a43d eb7d 433c e5e6 c73b
00000280: 69e9 42bc 065b bebc 86b2 8ebc 29c0 1a3c
00000290: e38e b23c 8b08 383c a8e1 4abc 73cb 0f3d
000002a0: c012 323c 2ea7 dbbc 3f70 0939 6ed4 04bd
000002b0: 285d 78bb bd87 4a3c 84c8 62bc 6f86 743c
000002c0: 98dc 173c 9964 a6bc cf27 e8bc d8d1 613a
000002d0: 3445 b03b ecbf b73b 09b2 2d3d cdff 873d
000002e0: dc33 053d 0b95 693d 18a5 db3c c22e 7b3d
000002f0: a146 953c 0f97 7fbc 6784 f8bc f2d9 53bc
00000300: 0c06 5c3c 8487 a43b dae0 46bc 9a7c d53c
00000310: 5414 f73c 1de8 8b3c 71bd 103d bb7a 943c
00000320: 93e2 143b 8639 2bbd 4e62 12bc fbc4 b63b
00000330: c1c2 73bc ca97 4dbd e0ac 903c 3b2f a5bc
00000340: 2b5e d6bb 335a 203d 313d 1b3d 20b8 683d
00000350: e619 aa3d 7a9f c23d 1d06 b43d 1022 de3c
00000360: e8f7 393d 4197 0a3d 693d fbbb 1eae dcbc
00000370: ef06 8a3c 9c79 593c b58b 093c bf60 efb8
00000380: 4ce9 0a3d cfa7 083d 9f16 5f3b 731d 9ebc
00000390: af06 863c 261e c6bc 89f4 dabc 69f6 62bb
000003a0: 4c73 8cbc c4e7 bcbc 591f 523c 70ad b4bb
000003b0: 1603 5a3c a403 79bb a552 413b 6d2b 66bb
000003c0: 46ce 1b3c 17c6 993d 43d2 063d 0197 403d
000003d0: a06f a03d f71a 953c dcd5 2c3d 53ff 063d
000003e0: 6216 29bd ed61 91bc d609 833b fb56 c43c
000003f0: 6da5 9c3c 4eeb 95bc 9361 843c 7a98 19bd
-0.02782416 0.020329975 0.035637494 -0.033027347 0.0019994564 0.011473991 0.013985597 0.00834015
-0.01001803 0.008362524 0.015288357 -0.03406746 -0.032431476 0.008952717 -0.0014166124 -0.011669373
0.02375513 0.0027245171 -0.021861235 -0.0318643 0.0013884939 -0.028840454 -0.019602997 0.0019387305
0.03495693 0.008195035 -0.008889096 0.012858771 -0.008282367 -0.027019178 0.0298375 0.01692744
-0.02651284 -0.013435187 -0.019023566 -0.0018384678 -0.017518442 0.020920085 0.021994593 -0.010303645
-0.016914465 -0.034646288 -0.02962432 -0.016985117 -0.0028833912 0.010481282 0.005288723 0.006956265
-0.026935168 0.015370167 0.017985098 -9.262216e-05 -0.029502738 0.0029720925 0.0265809 0.0136931725
0.004998628 0.019641157 -0.020243298 0.0108030625 -0.029549994 0.025583623 0.014755839 0.0007073723
0.020118056 0.032078862 0.018224701 0.024104912 0.014508176 0.016183795 -0.019135106 0.00021892464
-0.03264222 -0.03353901 -0.028133126 -0.014038251 0.005404707 0.015871646 -0.007290792 -0.007874884
0.0050640567 0.033133026 0.03522249 -0.025293538 0.018765122 -0.02449216 -0.0025426832 0.025068073
-0.015766567 -0.026158659 -0.016361719 -0.013627243 0.03142504 -0.037730757 -0.029354112 0.025881961
-0.028343426 -0.00016611197 0.010731153 -0.010772156 -0.051413435 0.0037548111 -0.0055617946 0.0033110452
0.0041811606 0.008602385 -0.03194578 -0.007834969 0.026753644 -0.023108408 -0.028256547 -0.009227136
-0.008955862 -0.012407693 0.0033593697 -0.0027445997 0.03141809 -0.010034907 0.0012502387 -0.033706963
-0.023906177 0.022890069 -0.0018257668 -0.00842999 -0.02846363 -0.0017485905 -0.016912064 0.01635371
0.008067637 0.011962755 0.025122937 -0.00063241465 -0.02355346 -0.024558293 0.0024474857 -0.014087683
0.007672551 0.014288228 -0.012959766 -0.030152204 -0.014337515 -0.000547152 -0.0018631608 -0.026040107
0.022703633 -0.038622364 -0.02178896 -0.015470499 -0.04308029 -0.024758263 -0.03746148 -0.006069464
-0.025510235 0.0010846076 0.045225967 0.047342923 0.0715881 0.0805641 0.011931877 0.006100523
-0.01189647 -0.023236763 -0.017419111 0.009445229 0.02179665 0.011232506 -0.012382902 0.035106134
0.010868728 -0.026813116 0.00013107153 -0.03242915 -0.0037897322 0.012361464 -0.013841752 0.01492463
0.009268902 -0.02031164 -0.028339295 0.0008614338 0.0053793434 0.0056075957 0.042406116 0.06640587
0.03252016 0.057026904 0.026812121 0.06132389 0.018222155 -0.01559998 -0.030336572 -0.01293038
0.013429176 0.0050210375 -0.01213857 0.026060391 0.03016106 0.017078454 0.035336915 0.018124929
0.0022718057 -0.041802905 -0.0089345705 0.005577681 -0.014877976 -0.050193585 0.017660558 -0.020164123
-0.0065419874 0.03914852 0.037900154 0.05681622 0.08305721 0.09503074 0.087902285 0.027115852
0.045402437 0.033835653 -0.007667233 -0.026938494 0.01684901 0.013273623 0.008395125 -0.000114144284
0.033913895 0.03336316 0.0034040583 -0.019301152 0.016360609 -0.024184298 -0.026727932 -0.0034631735
-0.017144822 -0.023059733 0.012824857 -0.0055138394 0.0133064 -0.0037996555 0.0029498723 -0.0035121099
0.009509629 0.07508486 0.032915365 0.04701901 0.07833791 0.018201334 0.04219614 0.03295834
-0.04128111 -0.01774689 0.0039989753 0.023967257 0.01912185 -0.018300679 0.016159808 -0.03749893

linear.bias f4 [10]
00000000: 88f5 3bbd 8f72 cf3d e157 013c 09d2 3cbd
00000010: 460b 3f3d e317 3e3d 65f0 cdbc 0f0c 9a3d
00000020: 877c efbd b262 983b
-0.045888454 0.10129272 0.007894487 -0.046098743 0.04664161 0.0464095 -0.025139043 0.07521831
-0.116936736 0.0046504373
